{
  "layers" : [
    {
      "axis_seq" : 4,
      "name" : "input_transpose0",
      "axis_n" : 3,
      "axis_h" : 0,
      "type" : "transpose",
      "attributes" : {
        "basic_block_head" : 1
      },
      "bottom" : "poses",
      "axis_w" : 2,
      "axis_k" : 1,
      "debug_info" : "input_transpose0",
      "weights" : {

      },
      "top" : "input_transpose0"
    },
    {
      "name" : "encode_reshape0",
      "weights" : {

      },
      "dst_w" : 60,
      "version" : 1,
      "dst_n" : 1,
      "dst_nd_rank" : 3,
      "type" : "reshape",
      "dst_h" : 54,
      "mode" : 0,
      "dynamic_shape" : false,
      "bottom" : "input_transpose0",
      "debug_info" : "encode_reshape0",
      "dst_seq" : 1,
      "dst_k" : 1,
      "top" : "encode_reshape0"
    },
    {
      "size_of_axes" : 2,
      "bottom" : "encode_reshape0",
      "axes_0" : 0,
      "axes_1" : 3,
      "weights" : {

      },
      "nd_axis" : 0,
      "debug_info" : "encode_expand_dims0",
      "top" : "encode_expand_dims0",
      "type" : "expand_dims",
      "name" : "encode_expand_dims0"
    },
    {
      "name" : "stgcn_action_batch_norm_1",
      "bottom" : "encode_expand_dims0",
      "weights" : {

      },
      "debug_info" : "stgcn_action_batch_norm_1",
      "top" : "stgcn_action_batch_norm_1",
      "C" : 54,
      "blob_batchnorm_params" : 1,
      "type" : "batchnorm"
    },
    {
      "size_of_axes" : 2,
      "bottom" : "stgcn_action_batch_norm_1",
      "axes_0" : 0,
      "axes_1" : 3,
      "weights" : {

      },
      "nd_axis" : 0,
      "debug_info" : "encode_squeeze0",
      "version" : 1,
      "top" : "encode_squeeze0",
      "type" : "squeeze",
      "name" : "encode_squeeze0"
    },
    {
      "name" : "encode_reshape1",
      "weights" : {

      },
      "dst_w" : 60,
      "version" : 1,
      "dst_n" : 1,
      "dst_nd_rank" : 4,
      "type" : "reshape",
      "dst_h" : 18,
      "mode" : 0,
      "dynamic_shape" : false,
      "bottom" : "encode_squeeze0",
      "debug_info" : "encode_reshape1",
      "dst_seq" : 1,
      "dst_k" : 3,
      "top" : "encode_reshape1"
    },
    {
      "axis_h" : 0,
      "axis_w" : 1,
      "bottom" : "encode_reshape1",
      "axis_k" : 2,
      "axis_n" : 3,
      "axis_seq" : 4,
      "weights" : {

      },
      "debug_info" : "encode_transpose0",
      "top" : "encode_transpose0",
      "type" : "transpose",
      "name" : "encode_transpose0"
    },
    {
      "pad_r" : 0,
      "fused_relu" : 0,
      "fused_tanh" : 0,
      "debug_info" : "stgcn_action_stgcn_0graph_conv_conv_1",
      "pad_fill_mode" : 0,
      "pad_b" : 0,
      "pad_l" : 0,
      "top" : "stgcn_action_stgcn_0graph_conv_conv_1",
      "blob_weights" : 5,
      "K" : 3,
      "blob_biases" : 3,
      "name" : "stgcn_action_stgcn_0graph_conv_conv_1",
      "has_batch_norm" : 0,
      "type" : "convolution",
      "n_groups" : 1,
      "pad_t" : 0,
      "has_biases" : 1,
      "C" : 24,
      "bottom" : "encode_transpose0",
      "weights" : {

      },
      "Nx" : 1,
      "pad_mode" : 0,
      "pad_value" : 0,
      "Ny" : 1,
      "n_parallel" : 1
    },
    {
      "begin_104" : 0,
      "begin_63" : 0,
      "begin_59" : 0,
      "begin_64" : 0,
      "begin_105" : 0,
      "begin_65" : 0,
      "begin_0" : 8,
      "begin_70" : 0,
      "begin_66" : 0,
      "begin_106" : 0,
      "begin_110" : 0,
      "begin_2" : 8,
      "begin_71" : 0,
      "begin_67" : 0,
      "begin_68" : 0,
      "begin_107" : 0,
      "begin_111" : 0,
      "begin_4" : 0,
      "begin_72" : 0,
      "begin_73" : 0,
      "begin_69" : 0,
      "begin_6" : 0,
      "begin_74" : 0,
      "begin_108" : 0,
      "type" : "split_nd",
      "begin_8" : 0,
      "begin_112" : 0,
      "begin_75" : 0,
      "begin_10" : 0,
      "begin_80" : 0,
      "begin_76" : 0,
      "begin_109" : 0,
      "begin_113" : 0,
      "begin_11" : 0,
      "nd_axis" : 1,
      "begin_81" : 0,
      "begin_77" : 0,
      "begin_114" : 0,
      "begin_12" : 0,
      "begin_78" : 0,
      "begin_82" : 0,
      "begin_13" : 0,
      "begin_83" : 0,
      "begin_79" : 0,
      "begin_115" : 0,
      "begin_14" : 0,
      "begin_84" : 0,
      "begin_15" : 0,
      "begin_85" : 0,
      "num_splits" : 3,
      "begin_116" : 0,
      "begin_120" : 0,
      "begin_20" : 0,
      "begin_86" : 0,
      "begin_16" : 0,
      "begin_90" : 0,
      "begin_21" : 0,
      "begin_91" : 0,
      "begin_87" : 0,
      "begin_17" : 0,
      "begin_117" : 0,
      "begin_121" : 0,
      "begin_18" : 0,
      "begin_92" : 0,
      "begin_88" : 0,
      "begin_22" : 0,
      "begin_23" : 0,
      "begin_89" : 0,
      "begin_19" : 0,
      "begin_93" : 0,
      "begin_118" : 0,
      "begin_122" : 0,
      "begin_24" : 0,
      "begin_94" : 0,
      "begin_25" : 0,
      "begin_95" : 0,
      "begin_119" : 0,
      "begin_123" : 0,
      "begin_30" : 0,
      "begin_26" : 0,
      "begin_96" : 0,
      "begin_124" : 0,
      "begin_31" : 0,
      "begin_97" : 0,
      "begin_27" : 0,
      "begin_28" : 0,
      "begin_98" : 0,
      "begin_32" : 0,
      "begin_125" : 0,
      "begin_33" : 0,
      "begin_29" : 0,
      "begin_99" : 0,
      "begin_1" : 8,
      "weights" : {

      },
      "begin_34" : 0,
      "bottom" : "stgcn_action_stgcn_0graph_conv_conv_1",
      "begin_3" : 0,
      "begin_126" : 0,
      "begin_35" : 0,
      "begin_5" : 0,
      "begin_36" : 0,
      "begin_40" : 0,
      "begin_127" : 0,
      "name" : "encode_split0",
      "begin_41" : 0,
      "begin_37" : 0,
      "begin_7" : 0,
      "begin_42" : 0,
      "begin_38" : 0,
      "begin_9" : 0,
      "begin_39" : 0,
      "begin_43" : 0,
      "begin_44" : 0,
      "begin_45" : 0,
      "begin_50" : 0,
      "begin_46" : 0,
      "begin_51" : 0,
      "begin_47" : 0,
      "begin_100" : 0,
      "begin_52" : 0,
      "debug_info" : "encode_split0",
      "begin_48" : 0,
      "top" : "encode_split0_0,encode_split0_1,encode_split0_2",
      "begin_101" : 0,
      "begin_53" : 0,
      "begin_49" : 0,
      "begin_54" : 0,
      "begin_55" : 0,
      "begin_102" : 0,
      "begin_60" : 0,
      "begin_56" : 0,
      "begin_103" : 0,
      "begin_57" : 0,
      "begin_61" : 0,
      "begin_62" : 0,
      "begin_58" : 0
    },
    {
      "bottom" : "encode_split0_0,encode_split0_1,encode_split0_2",
      "weights" : {

      },
      "nd_mode" : true,
      "axis" : 3,
      "debug_info" : "encode_concat0",
      "top" : "encode_concat0",
      "type" : "general_concat",
      "name" : "encode_concat0"
    },
    {
      "axis_h" : 1,
      "axis_w" : 2,
      "bottom" : "encode_concat0",
      "axis_k" : 0,
      "axis_n" : 3,
      "axis_seq" : 4,
      "weights" : {

      },
      "debug_info" : "encode_transpose1",
      "top" : "encode_transpose1",
      "type" : "transpose",
      "name" : "encode_transpose1"
    },
    {
      "pad_r" : 0,
      "fused_relu" : 0,
      "fused_tanh" : 0,
      "debug_info" : "stgcn_action_stgcn_0graph_conv_conv_2",
      "pad_fill_mode" : 0,
      "pad_b" : 0,
      "pad_l" : 0,
      "top" : "stgcn_action_stgcn_0graph_conv_conv_2",
      "blob_weights" : 7,
      "K" : 54,
      "name" : "stgcn_action_stgcn_0graph_conv_conv_2",
      "has_batch_norm" : 0,
      "type" : "convolution",
      "n_groups" : 1,
      "pad_t" : 0,
      "has_biases" : 0,
      "C" : 18,
      "bottom" : "encode_transpose1",
      "weights" : {

      },
      "Nx" : 1,
      "pad_mode" : 0,
      "pad_value" : 0,
      "Ny" : 1,
      "n_parallel" : 1
    },
    {
      "axis_h" : 1,
      "axis_w" : 2,
      "bottom" : "stgcn_action_stgcn_0graph_conv_conv_2",
      "axis_k" : 0,
      "axis_n" : 3,
      "axis_seq" : 4,
      "weights" : {

      },
      "debug_info" : "encode_transpose2",
      "top" : "encode_transpose2",
      "type" : "transpose",
      "name" : "encode_transpose2"
    },
    {
      "name" : "stgcn_action_stgcn_0graph_conv_tcn_batch_norm_0",
      "bottom" : "encode_transpose2",
      "weights" : {

      },
      "debug_info" : "stgcn_action_stgcn_0graph_conv_tcn_batch_norm_0",
      "top" : "stgcn_action_stgcn_0graph_conv_tcn_batch_norm_0",
      "C" : 8,
      "blob_batchnorm_params" : 9,
      "type" : "batchnorm"
    },
    {
      "bottom" : "stgcn_action_stgcn_0graph_conv_tcn_batch_norm_0",
      "weights" : {

      },
      "mode" : 0,
      "debug_info" : "encode_activation0",
      "top" : "encode_activation0",
      "type" : "activation",
      "name" : "encode_activation0"
    },
    {
      "pad_r" : 0,
      "fused_relu" : 1,
      "fused_tanh" : 0,
      "debug_info" : "stgcn_action_stgcn_0graph_conv_tcn_conv_1",
      "pad_fill_mode" : 0,
      "pad_b" : 4,
      "pad_l" : 0,
      "top" : "stgcn_action_stgcn_0_relu_0",
      "blob_weights" : 13,
      "K" : 8,
      "blob_biases" : 11,
      "name" : "stgcn_action_stgcn_0graph_conv_tcn_conv_1",
      "has_batch_norm" : 0,
      "type" : "convolution",
      "n_groups" : 1,
      "pad_t" : 4,
      "has_biases" : 1,
      "C" : 8,
      "bottom" : "encode_activation0",
      "weights" : {

      },
      "Nx" : 1,
      "pad_mode" : 0,
      "pad_value" : 0,
      "Ny" : 9,
      "n_parallel" : 1
    },
    {
      "pad_r" : 0,
      "fused_relu" : 0,
      "fused_tanh" : 0,
      "debug_info" : "stgcn_action_stgcn_1graph_conv_conv_1",
      "pad_fill_mode" : 0,
      "pad_b" : 0,
      "pad_l" : 0,
      "top" : "stgcn_action_stgcn_1graph_conv_conv_1",
      "blob_weights" : 17,
      "K" : 8,
      "blob_biases" : 15,
      "name" : "stgcn_action_stgcn_1graph_conv_conv_1",
      "has_batch_norm" : 0,
      "type" : "convolution",
      "n_groups" : 1,
      "pad_t" : 0,
      "has_biases" : 1,
      "C" : 48,
      "bottom" : "stgcn_action_stgcn_0_relu_0",
      "weights" : {

      },
      "Nx" : 1,
      "pad_mode" : 0,
      "pad_value" : 0,
      "Ny" : 1,
      "n_parallel" : 1
    },
    {
      "begin_104" : 0,
      "begin_63" : 0,
      "begin_59" : 0,
      "begin_64" : 0,
      "begin_105" : 0,
      "begin_65" : 0,
      "begin_0" : 16,
      "begin_70" : 0,
      "begin_66" : 0,
      "begin_106" : 0,
      "begin_110" : 0,
      "begin_2" : 16,
      "begin_71" : 0,
      "begin_67" : 0,
      "begin_68" : 0,
      "begin_107" : 0,
      "begin_111" : 0,
      "begin_4" : 0,
      "begin_72" : 0,
      "begin_73" : 0,
      "begin_69" : 0,
      "begin_6" : 0,
      "begin_74" : 0,
      "begin_108" : 0,
      "type" : "split_nd",
      "begin_8" : 0,
      "begin_112" : 0,
      "begin_75" : 0,
      "begin_10" : 0,
      "begin_80" : 0,
      "begin_76" : 0,
      "begin_109" : 0,
      "begin_113" : 0,
      "begin_11" : 0,
      "nd_axis" : 1,
      "begin_81" : 0,
      "begin_77" : 0,
      "begin_114" : 0,
      "begin_12" : 0,
      "begin_78" : 0,
      "begin_82" : 0,
      "begin_13" : 0,
      "begin_83" : 0,
      "begin_79" : 0,
      "begin_115" : 0,
      "begin_14" : 0,
      "begin_84" : 0,
      "begin_15" : 0,
      "begin_85" : 0,
      "num_splits" : 3,
      "begin_116" : 0,
      "begin_120" : 0,
      "begin_20" : 0,
      "begin_86" : 0,
      "begin_16" : 0,
      "begin_90" : 0,
      "begin_21" : 0,
      "begin_91" : 0,
      "begin_87" : 0,
      "begin_17" : 0,
      "begin_117" : 0,
      "begin_121" : 0,
      "begin_18" : 0,
      "begin_92" : 0,
      "begin_88" : 0,
      "begin_22" : 0,
      "begin_23" : 0,
      "begin_89" : 0,
      "begin_19" : 0,
      "begin_93" : 0,
      "begin_118" : 0,
      "begin_122" : 0,
      "begin_24" : 0,
      "begin_94" : 0,
      "begin_25" : 0,
      "begin_95" : 0,
      "begin_119" : 0,
      "begin_123" : 0,
      "begin_30" : 0,
      "begin_26" : 0,
      "begin_96" : 0,
      "begin_124" : 0,
      "begin_31" : 0,
      "begin_97" : 0,
      "begin_27" : 0,
      "begin_28" : 0,
      "begin_98" : 0,
      "begin_32" : 0,
      "begin_125" : 0,
      "begin_33" : 0,
      "begin_29" : 0,
      "begin_99" : 0,
      "begin_1" : 16,
      "weights" : {

      },
      "begin_34" : 0,
      "bottom" : "stgcn_action_stgcn_1graph_conv_conv_1",
      "begin_3" : 0,
      "begin_126" : 0,
      "begin_35" : 0,
      "begin_5" : 0,
      "begin_36" : 0,
      "begin_40" : 0,
      "begin_127" : 0,
      "name" : "residual1_split0",
      "begin_41" : 0,
      "begin_37" : 0,
      "begin_7" : 0,
      "begin_42" : 0,
      "begin_38" : 0,
      "begin_9" : 0,
      "begin_39" : 0,
      "begin_43" : 0,
      "begin_44" : 0,
      "begin_45" : 0,
      "begin_50" : 0,
      "begin_46" : 0,
      "begin_51" : 0,
      "begin_47" : 0,
      "begin_100" : 0,
      "begin_52" : 0,
      "debug_info" : "residual1_split0",
      "begin_48" : 0,
      "top" : "residual1_split0_0,residual1_split0_1,residual1_split0_2",
      "begin_101" : 0,
      "begin_53" : 0,
      "begin_49" : 0,
      "begin_54" : 0,
      "begin_55" : 0,
      "begin_102" : 0,
      "begin_60" : 0,
      "begin_56" : 0,
      "begin_103" : 0,
      "begin_57" : 0,
      "begin_61" : 0,
      "begin_62" : 0,
      "begin_58" : 0
    },
    {
      "bottom" : "residual1_split0_0,residual1_split0_1,residual1_split0_2",
      "weights" : {

      },
      "nd_mode" : true,
      "axis" : 3,
      "debug_info" : "residual1_concat0",
      "top" : "residual1_concat0",
      "type" : "general_concat",
      "name" : "residual1_concat0"
    },
    {
      "axis_h" : 1,
      "axis_w" : 2,
      "bottom" : "residual1_concat0",
      "axis_k" : 0,
      "axis_n" : 3,
      "axis_seq" : 4,
      "weights" : {

      },
      "debug_info" : "residual1_transpose0",
      "top" : "residual1_transpose0",
      "type" : "transpose",
      "name" : "residual1_transpose0"
    },
    {
      "pad_r" : 0,
      "fused_relu" : 0,
      "fused_tanh" : 0,
      "debug_info" : "stgcn_action_stgcn_1graph_conv_conv_2",
      "pad_fill_mode" : 0,
      "pad_b" : 0,
      "pad_l" : 0,
      "top" : "stgcn_action_stgcn_1graph_conv_conv_2",
      "blob_weights" : 19,
      "K" : 54,
      "name" : "stgcn_action_stgcn_1graph_conv_conv_2",
      "has_batch_norm" : 0,
      "type" : "convolution",
      "n_groups" : 1,
      "pad_t" : 0,
      "has_biases" : 0,
      "C" : 18,
      "bottom" : "residual1_transpose0",
      "weights" : {

      },
      "Nx" : 1,
      "pad_mode" : 0,
      "pad_value" : 0,
      "Ny" : 1,
      "n_parallel" : 1
    },
    {
      "axis_h" : 1,
      "axis_w" : 2,
      "bottom" : "stgcn_action_stgcn_1graph_conv_conv_2",
      "axis_k" : 0,
      "axis_n" : 3,
      "axis_seq" : 4,
      "weights" : {

      },
      "debug_info" : "residual1_transpose1",
      "top" : "residual1_transpose1",
      "type" : "transpose",
      "name" : "residual1_transpose1"
    },
    {
      "name" : "stgcn_action_stgcn_1graph_conv_tcn_batch_norm_0",
      "bottom" : "residual1_transpose1",
      "weights" : {

      },
      "debug_info" : "stgcn_action_stgcn_1graph_conv_tcn_batch_norm_0",
      "top" : "stgcn_action_stgcn_1graph_conv_tcn_batch_norm_0",
      "C" : 16,
      "blob_batchnorm_params" : 21,
      "type" : "batchnorm"
    },
    {
      "bottom" : "stgcn_action_stgcn_1graph_conv_tcn_batch_norm_0",
      "weights" : {

      },
      "mode" : 0,
      "debug_info" : "stgcn_action_stgcn_1graph_conv_tcn_relu_0",
      "top" : "stgcn_action_stgcn_1graph_conv_tcn_relu_0",
      "type" : "activation",
      "name" : "stgcn_action_stgcn_1graph_conv_tcn_relu_0"
    },
    {
      "pad_r" : 0,
      "fused_relu" : 0,
      "fused_tanh" : 0,
      "debug_info" : "stgcn_action_stgcn_1graph_conv_tcn_conv_1",
      "pad_fill_mode" : 0,
      "pad_b" : 4,
      "pad_l" : 0,
      "top" : "stgcn_action_stgcn_1graph_conv_tcn_batch_norm_1",
      "blob_weights" : 25,
      "K" : 16,
      "blob_biases" : 23,
      "name" : "stgcn_action_stgcn_1graph_conv_tcn_conv_1",
      "has_batch_norm" : 0,
      "type" : "convolution",
      "n_groups" : 1,
      "pad_t" : 4,
      "has_biases" : 1,
      "C" : 16,
      "bottom" : "stgcn_action_stgcn_1graph_conv_tcn_relu_0",
      "weights" : {

      },
      "Nx" : 1,
      "pad_mode" : 0,
      "pad_value" : 0,
      "Ny" : 9,
      "n_parallel" : 1
    },
    {
      "pad_r" : 0,
      "fused_relu" : 0,
      "fused_tanh" : 0,
      "debug_info" : "stgcn_action_stgcn_1residual_conv_1",
      "pad_fill_mode" : 0,
      "pad_b" : 0,
      "pad_l" : 0,
      "top" : "stgcn_action_stgcn_1residual_batch_norm_1",
      "blob_weights" : 29,
      "K" : 8,
      "blob_biases" : 27,
      "name" : "stgcn_action_stgcn_1residual_conv_1",
      "has_batch_norm" : 0,
      "type" : "convolution",
      "n_groups" : 1,
      "pad_t" : 0,
      "has_biases" : 1,
      "C" : 16,
      "bottom" : "stgcn_action_stgcn_0_relu_0",
      "weights" : {

      },
      "Nx" : 1,
      "pad_mode" : 0,
      "pad_value" : 0,
      "Ny" : 1,
      "n_parallel" : 1
    },
    {
      "bottom" : "stgcn_action_stgcn_1graph_conv_tcn_batch_norm_1,stgcn_action_stgcn_1residual_batch_norm_1",
      "alpha" : 1,
      "operation" : 0,
      "weights" : {

      },
      "fused_relu" : 0,
      "debug_info" : "residual1_add_broadcastable0",
      "nd_mode" : true,
      "top" : "residual1_add_broadcastable0",
      "type" : "elementwise",
      "name" : "residual1_add_broadcastable0",
      "beta" : 0
    },
    {
      "bottom" : "residual1_add_broadcastable0",
      "weights" : {

      },
      "mode" : 0,
      "debug_info" : "stgcn_action_stgcn_1_relu_0",
      "top" : "stgcn_action_stgcn_1_relu_0",
      "type" : "activation",
      "name" : "stgcn_action_stgcn_1_relu_0"
    },
    {
      "pad_r" : 0,
      "fused_relu" : 0,
      "fused_tanh" : 0,
      "debug_info" : "stgcn_action_stgcn_2graph_conv_conv_1",
      "pad_fill_mode" : 0,
      "pad_b" : 0,
      "pad_l" : 0,
      "top" : "stgcn_action_stgcn_2graph_conv_conv_1",
      "blob_weights" : 33,
      "K" : 16,
      "blob_biases" : 31,
      "name" : "stgcn_action_stgcn_2graph_conv_conv_1",
      "has_batch_norm" : 0,
      "type" : "convolution",
      "n_groups" : 1,
      "pad_t" : 0,
      "has_biases" : 1,
      "C" : 96,
      "bottom" : "stgcn_action_stgcn_1_relu_0",
      "weights" : {

      },
      "Nx" : 1,
      "pad_mode" : 0,
      "pad_value" : 0,
      "Ny" : 1,
      "n_parallel" : 1
    },
    {
      "begin_104" : 0,
      "begin_63" : 0,
      "begin_59" : 0,
      "begin_64" : 0,
      "begin_105" : 0,
      "begin_65" : 0,
      "begin_0" : 32,
      "begin_70" : 0,
      "begin_66" : 0,
      "begin_106" : 0,
      "begin_110" : 0,
      "begin_2" : 32,
      "begin_71" : 0,
      "begin_67" : 0,
      "begin_68" : 0,
      "begin_107" : 0,
      "begin_111" : 0,
      "begin_4" : 0,
      "begin_72" : 0,
      "begin_73" : 0,
      "begin_69" : 0,
      "begin_6" : 0,
      "begin_74" : 0,
      "begin_108" : 0,
      "type" : "split_nd",
      "begin_8" : 0,
      "begin_112" : 0,
      "begin_75" : 0,
      "begin_10" : 0,
      "begin_80" : 0,
      "begin_76" : 0,
      "begin_109" : 0,
      "begin_113" : 0,
      "begin_11" : 0,
      "nd_axis" : 1,
      "begin_81" : 0,
      "begin_77" : 0,
      "begin_114" : 0,
      "begin_12" : 0,
      "begin_78" : 0,
      "begin_82" : 0,
      "begin_13" : 0,
      "begin_83" : 0,
      "begin_79" : 0,
      "begin_115" : 0,
      "begin_14" : 0,
      "begin_84" : 0,
      "begin_15" : 0,
      "begin_85" : 0,
      "num_splits" : 3,
      "begin_116" : 0,
      "begin_120" : 0,
      "begin_20" : 0,
      "begin_86" : 0,
      "begin_16" : 0,
      "begin_90" : 0,
      "begin_21" : 0,
      "begin_91" : 0,
      "begin_87" : 0,
      "begin_17" : 0,
      "begin_117" : 0,
      "begin_121" : 0,
      "begin_18" : 0,
      "begin_92" : 0,
      "begin_88" : 0,
      "begin_22" : 0,
      "begin_23" : 0,
      "begin_89" : 0,
      "begin_19" : 0,
      "begin_93" : 0,
      "begin_118" : 0,
      "begin_122" : 0,
      "begin_24" : 0,
      "begin_94" : 0,
      "begin_25" : 0,
      "begin_95" : 0,
      "begin_119" : 0,
      "begin_123" : 0,
      "begin_30" : 0,
      "begin_26" : 0,
      "begin_96" : 0,
      "begin_124" : 0,
      "begin_31" : 0,
      "begin_97" : 0,
      "begin_27" : 0,
      "begin_28" : 0,
      "begin_98" : 0,
      "begin_32" : 0,
      "begin_125" : 0,
      "begin_33" : 0,
      "begin_29" : 0,
      "begin_99" : 0,
      "begin_1" : 32,
      "weights" : {

      },
      "begin_34" : 0,
      "bottom" : "stgcn_action_stgcn_2graph_conv_conv_1",
      "begin_3" : 0,
      "begin_126" : 0,
      "begin_35" : 0,
      "begin_5" : 0,
      "begin_36" : 0,
      "begin_40" : 0,
      "begin_127" : 0,
      "name" : "residual2_split0",
      "begin_41" : 0,
      "begin_37" : 0,
      "begin_7" : 0,
      "begin_42" : 0,
      "begin_38" : 0,
      "begin_9" : 0,
      "begin_39" : 0,
      "begin_43" : 0,
      "begin_44" : 0,
      "begin_45" : 0,
      "begin_50" : 0,
      "begin_46" : 0,
      "begin_51" : 0,
      "begin_47" : 0,
      "begin_100" : 0,
      "begin_52" : 0,
      "debug_info" : "residual2_split0",
      "begin_48" : 0,
      "top" : "residual2_split0_0,residual2_split0_1,residual2_split0_2",
      "begin_101" : 0,
      "begin_53" : 0,
      "begin_49" : 0,
      "begin_54" : 0,
      "begin_55" : 0,
      "begin_102" : 0,
      "begin_60" : 0,
      "begin_56" : 0,
      "begin_103" : 0,
      "begin_57" : 0,
      "begin_61" : 0,
      "begin_62" : 0,
      "begin_58" : 0
    },
    {
      "bottom" : "residual2_split0_0,residual2_split0_1,residual2_split0_2",
      "weights" : {

      },
      "nd_mode" : true,
      "axis" : 3,
      "debug_info" : "residual2_concat0",
      "top" : "residual2_concat0",
      "type" : "general_concat",
      "name" : "residual2_concat0"
    },
    {
      "axis_h" : 1,
      "axis_w" : 2,
      "bottom" : "residual2_concat0",
      "axis_k" : 0,
      "axis_n" : 3,
      "axis_seq" : 4,
      "weights" : {

      },
      "debug_info" : "residual2_transpose0",
      "top" : "residual2_transpose0",
      "type" : "transpose",
      "name" : "residual2_transpose0"
    },
    {
      "pad_r" : 0,
      "fused_relu" : 0,
      "fused_tanh" : 0,
      "debug_info" : "stgcn_action_stgcn_2graph_conv_conv_2",
      "pad_fill_mode" : 0,
      "pad_b" : 0,
      "pad_l" : 0,
      "top" : "stgcn_action_stgcn_2graph_conv_conv_2",
      "blob_weights" : 35,
      "K" : 54,
      "name" : "stgcn_action_stgcn_2graph_conv_conv_2",
      "has_batch_norm" : 0,
      "type" : "convolution",
      "n_groups" : 1,
      "pad_t" : 0,
      "has_biases" : 0,
      "C" : 18,
      "bottom" : "residual2_transpose0",
      "weights" : {

      },
      "Nx" : 1,
      "pad_mode" : 0,
      "pad_value" : 0,
      "Ny" : 1,
      "n_parallel" : 1
    },
    {
      "axis_h" : 1,
      "axis_w" : 2,
      "bottom" : "stgcn_action_stgcn_2graph_conv_conv_2",
      "axis_k" : 0,
      "axis_n" : 3,
      "axis_seq" : 4,
      "weights" : {

      },
      "debug_info" : "residual2_transpose1",
      "top" : "residual2_transpose1",
      "type" : "transpose",
      "name" : "residual2_transpose1"
    },
    {
      "name" : "stgcn_action_stgcn_2graph_conv_tcn_batch_norm_0",
      "bottom" : "residual2_transpose1",
      "weights" : {

      },
      "debug_info" : "stgcn_action_stgcn_2graph_conv_tcn_batch_norm_0",
      "top" : "stgcn_action_stgcn_2graph_conv_tcn_batch_norm_0",
      "C" : 32,
      "blob_batchnorm_params" : 37,
      "type" : "batchnorm"
    },
    {
      "bottom" : "stgcn_action_stgcn_2graph_conv_tcn_batch_norm_0",
      "weights" : {

      },
      "mode" : 0,
      "debug_info" : "stgcn_action_stgcn_2graph_conv_tcn_relu_0",
      "top" : "stgcn_action_stgcn_2graph_conv_tcn_relu_0",
      "type" : "activation",
      "name" : "stgcn_action_stgcn_2graph_conv_tcn_relu_0"
    },
    {
      "pad_r" : 0,
      "fused_relu" : 0,
      "fused_tanh" : 0,
      "debug_info" : "stgcn_action_stgcn_2graph_conv_tcn_conv_1",
      "pad_fill_mode" : 0,
      "pad_b" : 4,
      "pad_l" : 0,
      "top" : "stgcn_action_stgcn_2graph_conv_tcn_batch_norm_1",
      "blob_weights" : 41,
      "K" : 32,
      "blob_biases" : 39,
      "name" : "stgcn_action_stgcn_2graph_conv_tcn_conv_1",
      "has_batch_norm" : 0,
      "type" : "convolution",
      "n_groups" : 1,
      "pad_t" : 4,
      "has_biases" : 1,
      "C" : 32,
      "bottom" : "stgcn_action_stgcn_2graph_conv_tcn_relu_0",
      "weights" : {

      },
      "Nx" : 1,
      "pad_mode" : 0,
      "pad_value" : 0,
      "Ny" : 9,
      "n_parallel" : 1
    },
    {
      "pad_r" : 0,
      "fused_relu" : 0,
      "fused_tanh" : 0,
      "debug_info" : "stgcn_action_stgcn_2residual_conv_1",
      "pad_fill_mode" : 0,
      "pad_b" : 0,
      "pad_l" : 0,
      "top" : "stgcn_action_stgcn_2residual_batch_norm_1",
      "blob_weights" : 45,
      "K" : 16,
      "blob_biases" : 43,
      "name" : "stgcn_action_stgcn_2residual_conv_1",
      "has_batch_norm" : 0,
      "type" : "convolution",
      "n_groups" : 1,
      "pad_t" : 0,
      "has_biases" : 1,
      "C" : 32,
      "bottom" : "stgcn_action_stgcn_1_relu_0",
      "weights" : {

      },
      "Nx" : 1,
      "pad_mode" : 0,
      "pad_value" : 0,
      "Ny" : 1,
      "n_parallel" : 1
    },
    {
      "bottom" : "stgcn_action_stgcn_2graph_conv_tcn_batch_norm_1,stgcn_action_stgcn_2residual_batch_norm_1",
      "alpha" : 1,
      "operation" : 0,
      "weights" : {

      },
      "fused_relu" : 0,
      "debug_info" : "residual2_add_broadcastable0",
      "nd_mode" : true,
      "top" : "residual2_add_broadcastable0",
      "type" : "elementwise",
      "name" : "residual2_add_broadcastable0",
      "beta" : 0
    },
    {
      "bottom" : "residual2_add_broadcastable0",
      "weights" : {

      },
      "mode" : 0,
      "debug_info" : "stgcn_action_stgcn_2_relu_0",
      "top" : "stgcn_action_stgcn_2_relu_0",
      "type" : "activation",
      "name" : "stgcn_action_stgcn_2_relu_0"
    },
    {
      "pad_r" : 0,
      "fused_relu" : 0,
      "fused_tanh" : 0,
      "debug_info" : "stgcn_action_stgcn_3graph_conv_conv_1",
      "pad_fill_mode" : 0,
      "pad_b" : 0,
      "pad_l" : 0,
      "top" : "stgcn_action_stgcn_3graph_conv_conv_1",
      "blob_weights" : 49,
      "K" : 32,
      "blob_biases" : 47,
      "name" : "stgcn_action_stgcn_3graph_conv_conv_1",
      "has_batch_norm" : 0,
      "type" : "convolution",
      "n_groups" : 1,
      "pad_t" : 0,
      "has_biases" : 1,
      "C" : 192,
      "bottom" : "stgcn_action_stgcn_2_relu_0",
      "weights" : {

      },
      "Nx" : 1,
      "pad_mode" : 0,
      "pad_value" : 0,
      "Ny" : 1,
      "n_parallel" : 1
    },
    {
      "begin_104" : 0,
      "begin_63" : 0,
      "begin_59" : 0,
      "begin_64" : 0,
      "begin_105" : 0,
      "begin_65" : 0,
      "begin_0" : 64,
      "begin_70" : 0,
      "begin_66" : 0,
      "begin_106" : 0,
      "begin_110" : 0,
      "begin_2" : 64,
      "begin_71" : 0,
      "begin_67" : 0,
      "begin_68" : 0,
      "begin_107" : 0,
      "begin_111" : 0,
      "begin_4" : 0,
      "begin_72" : 0,
      "begin_73" : 0,
      "begin_69" : 0,
      "begin_6" : 0,
      "begin_74" : 0,
      "begin_108" : 0,
      "type" : "split_nd",
      "begin_8" : 0,
      "begin_112" : 0,
      "begin_75" : 0,
      "begin_10" : 0,
      "begin_80" : 0,
      "begin_76" : 0,
      "begin_109" : 0,
      "begin_113" : 0,
      "begin_11" : 0,
      "nd_axis" : 1,
      "begin_81" : 0,
      "begin_77" : 0,
      "begin_114" : 0,
      "begin_12" : 0,
      "begin_78" : 0,
      "begin_82" : 0,
      "begin_13" : 0,
      "begin_83" : 0,
      "begin_79" : 0,
      "begin_115" : 0,
      "begin_14" : 0,
      "begin_84" : 0,
      "begin_15" : 0,
      "begin_85" : 0,
      "num_splits" : 3,
      "begin_116" : 0,
      "begin_120" : 0,
      "begin_20" : 0,
      "begin_86" : 0,
      "begin_16" : 0,
      "begin_90" : 0,
      "begin_21" : 0,
      "begin_91" : 0,
      "begin_87" : 0,
      "begin_17" : 0,
      "begin_117" : 0,
      "begin_121" : 0,
      "begin_18" : 0,
      "begin_92" : 0,
      "begin_88" : 0,
      "begin_22" : 0,
      "begin_23" : 0,
      "begin_89" : 0,
      "begin_19" : 0,
      "begin_93" : 0,
      "begin_118" : 0,
      "begin_122" : 0,
      "begin_24" : 0,
      "begin_94" : 0,
      "begin_25" : 0,
      "begin_95" : 0,
      "begin_119" : 0,
      "begin_123" : 0,
      "begin_30" : 0,
      "begin_26" : 0,
      "begin_96" : 0,
      "begin_124" : 0,
      "begin_31" : 0,
      "begin_97" : 0,
      "begin_27" : 0,
      "begin_28" : 0,
      "begin_98" : 0,
      "begin_32" : 0,
      "begin_125" : 0,
      "begin_33" : 0,
      "begin_29" : 0,
      "begin_99" : 0,
      "begin_1" : 64,
      "weights" : {

      },
      "begin_34" : 0,
      "bottom" : "stgcn_action_stgcn_3graph_conv_conv_1",
      "begin_3" : 0,
      "begin_126" : 0,
      "begin_35" : 0,
      "begin_5" : 0,
      "begin_36" : 0,
      "begin_40" : 0,
      "begin_127" : 0,
      "name" : "residual3_split0",
      "begin_41" : 0,
      "begin_37" : 0,
      "begin_7" : 0,
      "begin_42" : 0,
      "begin_38" : 0,
      "begin_9" : 0,
      "begin_39" : 0,
      "begin_43" : 0,
      "begin_44" : 0,
      "begin_45" : 0,
      "begin_50" : 0,
      "begin_46" : 0,
      "begin_51" : 0,
      "begin_47" : 0,
      "begin_100" : 0,
      "begin_52" : 0,
      "debug_info" : "residual3_split0",
      "begin_48" : 0,
      "top" : "residual3_split0_0,residual3_split0_1,residual3_split0_2",
      "begin_101" : 0,
      "begin_53" : 0,
      "begin_49" : 0,
      "begin_54" : 0,
      "begin_55" : 0,
      "begin_102" : 0,
      "begin_60" : 0,
      "begin_56" : 0,
      "begin_103" : 0,
      "begin_57" : 0,
      "begin_61" : 0,
      "begin_62" : 0,
      "begin_58" : 0
    },
    {
      "bottom" : "residual3_split0_0,residual3_split0_1,residual3_split0_2",
      "weights" : {

      },
      "nd_mode" : true,
      "axis" : 3,
      "debug_info" : "residual3_concat0",
      "top" : "residual3_concat0",
      "type" : "general_concat",
      "name" : "residual3_concat0"
    },
    {
      "axis_h" : 1,
      "axis_w" : 2,
      "bottom" : "residual3_concat0",
      "axis_k" : 0,
      "axis_n" : 3,
      "axis_seq" : 4,
      "weights" : {

      },
      "debug_info" : "residual3_transpose0",
      "top" : "residual3_transpose0",
      "type" : "transpose",
      "name" : "residual3_transpose0"
    },
    {
      "pad_r" : 0,
      "fused_relu" : 0,
      "fused_tanh" : 0,
      "debug_info" : "stgcn_action_stgcn_3graph_conv_conv_2",
      "pad_fill_mode" : 0,
      "pad_b" : 0,
      "pad_l" : 0,
      "top" : "stgcn_action_stgcn_3graph_conv_conv_2",
      "blob_weights" : 51,
      "K" : 54,
      "name" : "stgcn_action_stgcn_3graph_conv_conv_2",
      "has_batch_norm" : 0,
      "type" : "convolution",
      "n_groups" : 1,
      "pad_t" : 0,
      "has_biases" : 0,
      "C" : 18,
      "bottom" : "residual3_transpose0",
      "weights" : {

      },
      "Nx" : 1,
      "pad_mode" : 0,
      "pad_value" : 0,
      "Ny" : 1,
      "n_parallel" : 1
    },
    {
      "axis_h" : 1,
      "axis_w" : 2,
      "bottom" : "stgcn_action_stgcn_3graph_conv_conv_2",
      "axis_k" : 0,
      "axis_n" : 3,
      "axis_seq" : 4,
      "weights" : {

      },
      "debug_info" : "residual3_transpose1",
      "top" : "residual3_transpose1",
      "type" : "transpose",
      "name" : "residual3_transpose1"
    },
    {
      "name" : "stgcn_action_stgcn_3graph_conv_tcn_batch_norm_0",
      "bottom" : "residual3_transpose1",
      "weights" : {

      },
      "debug_info" : "stgcn_action_stgcn_3graph_conv_tcn_batch_norm_0",
      "top" : "stgcn_action_stgcn_3graph_conv_tcn_batch_norm_0",
      "C" : 64,
      "blob_batchnorm_params" : 53,
      "type" : "batchnorm"
    },
    {
      "bottom" : "stgcn_action_stgcn_3graph_conv_tcn_batch_norm_0",
      "weights" : {

      },
      "mode" : 0,
      "debug_info" : "stgcn_action_stgcn_3graph_conv_tcn_relu_0",
      "top" : "stgcn_action_stgcn_3graph_conv_tcn_relu_0",
      "type" : "activation",
      "name" : "stgcn_action_stgcn_3graph_conv_tcn_relu_0"
    },
    {
      "pad_r" : 0,
      "fused_relu" : 0,
      "fused_tanh" : 0,
      "debug_info" : "stgcn_action_stgcn_3graph_conv_tcn_conv_1",
      "pad_fill_mode" : 0,
      "pad_b" : 4,
      "pad_l" : 0,
      "top" : "stgcn_action_stgcn_3graph_conv_tcn_batch_norm_1",
      "blob_weights" : 57,
      "K" : 64,
      "blob_biases" : 55,
      "name" : "stgcn_action_stgcn_3graph_conv_tcn_conv_1",
      "has_batch_norm" : 0,
      "type" : "convolution",
      "n_groups" : 1,
      "pad_t" : 4,
      "stride_y" : 2,
      "has_biases" : 1,
      "C" : 64,
      "bottom" : "stgcn_action_stgcn_3graph_conv_tcn_relu_0",
      "weights" : {

      },
      "Nx" : 1,
      "pad_mode" : 0,
      "pad_value" : 0,
      "Ny" : 9,
      "n_parallel" : 1
    },
    {
      "pad_r" : 0,
      "fused_relu" : 0,
      "fused_tanh" : 0,
      "debug_info" : "stgcn_action_stgcn_3residual_conv_1",
      "pad_fill_mode" : 0,
      "pad_b" : 0,
      "pad_l" : 0,
      "top" : "stgcn_action_stgcn_3residual_batch_norm_1",
      "blob_weights" : 61,
      "K" : 32,
      "blob_biases" : 59,
      "name" : "stgcn_action_stgcn_3residual_conv_1",
      "has_batch_norm" : 0,
      "type" : "convolution",
      "n_groups" : 1,
      "pad_t" : 0,
      "stride_y" : 2,
      "has_biases" : 1,
      "C" : 64,
      "bottom" : "stgcn_action_stgcn_2_relu_0",
      "weights" : {

      },
      "Nx" : 1,
      "pad_mode" : 0,
      "pad_value" : 0,
      "Ny" : 1,
      "n_parallel" : 1
    },
    {
      "bottom" : "stgcn_action_stgcn_3graph_conv_tcn_batch_norm_1,stgcn_action_stgcn_3residual_batch_norm_1",
      "alpha" : 1,
      "operation" : 0,
      "weights" : {

      },
      "fused_relu" : 0,
      "debug_info" : "residual3_add_broadcastable0",
      "nd_mode" : true,
      "top" : "residual3_add_broadcastable0",
      "type" : "elementwise",
      "name" : "residual3_add_broadcastable0",
      "beta" : 0
    },
    {
      "bottom" : "residual3_add_broadcastable0",
      "weights" : {

      },
      "mode" : 0,
      "debug_info" : "stgcn_action_stgcn_3_relu_0",
      "top" : "stgcn_action_stgcn_3_relu_0",
      "type" : "activation",
      "name" : "stgcn_action_stgcn_3_relu_0"
    },
    {
      "pad_r" : 0,
      "fused_relu" : 0,
      "fused_tanh" : 0,
      "debug_info" : "stgcn_action_stgcn_4graph_conv_conv_1",
      "pad_fill_mode" : 0,
      "pad_b" : 0,
      "pad_l" : 0,
      "top" : "stgcn_action_stgcn_4graph_conv_conv_1",
      "blob_weights" : 65,
      "K" : 64,
      "blob_biases" : 63,
      "name" : "stgcn_action_stgcn_4graph_conv_conv_1",
      "has_batch_norm" : 0,
      "type" : "convolution",
      "n_groups" : 1,
      "pad_t" : 0,
      "has_biases" : 1,
      "C" : 192,
      "bottom" : "stgcn_action_stgcn_3_relu_0",
      "weights" : {

      },
      "Nx" : 1,
      "pad_mode" : 0,
      "pad_value" : 0,
      "Ny" : 1,
      "n_parallel" : 1
    },
    {
      "begin_104" : 0,
      "begin_63" : 0,
      "begin_59" : 0,
      "begin_64" : 0,
      "begin_105" : 0,
      "begin_65" : 0,
      "begin_0" : 64,
      "begin_70" : 0,
      "begin_66" : 0,
      "begin_106" : 0,
      "begin_110" : 0,
      "begin_2" : 64,
      "begin_71" : 0,
      "begin_67" : 0,
      "begin_68" : 0,
      "begin_107" : 0,
      "begin_111" : 0,
      "begin_4" : 0,
      "begin_72" : 0,
      "begin_73" : 0,
      "begin_69" : 0,
      "begin_6" : 0,
      "begin_74" : 0,
      "begin_108" : 0,
      "type" : "split_nd",
      "begin_8" : 0,
      "begin_112" : 0,
      "begin_75" : 0,
      "begin_10" : 0,
      "begin_80" : 0,
      "begin_76" : 0,
      "begin_109" : 0,
      "begin_113" : 0,
      "begin_11" : 0,
      "nd_axis" : 1,
      "begin_81" : 0,
      "begin_77" : 0,
      "begin_114" : 0,
      "begin_12" : 0,
      "begin_78" : 0,
      "begin_82" : 0,
      "begin_13" : 0,
      "begin_83" : 0,
      "begin_79" : 0,
      "begin_115" : 0,
      "begin_14" : 0,
      "begin_84" : 0,
      "begin_15" : 0,
      "begin_85" : 0,
      "num_splits" : 3,
      "begin_116" : 0,
      "begin_120" : 0,
      "begin_20" : 0,
      "begin_86" : 0,
      "begin_16" : 0,
      "begin_90" : 0,
      "begin_21" : 0,
      "begin_91" : 0,
      "begin_87" : 0,
      "begin_17" : 0,
      "begin_117" : 0,
      "begin_121" : 0,
      "begin_18" : 0,
      "begin_92" : 0,
      "begin_88" : 0,
      "begin_22" : 0,
      "begin_23" : 0,
      "begin_89" : 0,
      "begin_19" : 0,
      "begin_93" : 0,
      "begin_118" : 0,
      "begin_122" : 0,
      "begin_24" : 0,
      "begin_94" : 0,
      "begin_25" : 0,
      "begin_95" : 0,
      "begin_119" : 0,
      "begin_123" : 0,
      "begin_30" : 0,
      "begin_26" : 0,
      "begin_96" : 0,
      "begin_124" : 0,
      "begin_31" : 0,
      "begin_97" : 0,
      "begin_27" : 0,
      "begin_28" : 0,
      "begin_98" : 0,
      "begin_32" : 0,
      "begin_125" : 0,
      "begin_33" : 0,
      "begin_29" : 0,
      "begin_99" : 0,
      "begin_1" : 64,
      "weights" : {

      },
      "begin_34" : 0,
      "bottom" : "stgcn_action_stgcn_4graph_conv_conv_1",
      "begin_3" : 0,
      "begin_126" : 0,
      "begin_35" : 0,
      "begin_5" : 0,
      "begin_36" : 0,
      "begin_40" : 0,
      "begin_127" : 0,
      "name" : "residual4_split0",
      "begin_41" : 0,
      "begin_37" : 0,
      "begin_7" : 0,
      "begin_42" : 0,
      "begin_38" : 0,
      "begin_9" : 0,
      "begin_39" : 0,
      "begin_43" : 0,
      "begin_44" : 0,
      "begin_45" : 0,
      "begin_50" : 0,
      "begin_46" : 0,
      "begin_51" : 0,
      "begin_47" : 0,
      "begin_100" : 0,
      "begin_52" : 0,
      "debug_info" : "residual4_split0",
      "begin_48" : 0,
      "top" : "residual4_split0_0,residual4_split0_1,residual4_split0_2",
      "begin_101" : 0,
      "begin_53" : 0,
      "begin_49" : 0,
      "begin_54" : 0,
      "begin_55" : 0,
      "begin_102" : 0,
      "begin_60" : 0,
      "begin_56" : 0,
      "begin_103" : 0,
      "begin_57" : 0,
      "begin_61" : 0,
      "begin_62" : 0,
      "begin_58" : 0
    },
    {
      "bottom" : "residual4_split0_0,residual4_split0_1,residual4_split0_2",
      "weights" : {

      },
      "nd_mode" : true,
      "axis" : 3,
      "debug_info" : "residual4_concat0",
      "top" : "residual4_concat0",
      "type" : "general_concat",
      "name" : "residual4_concat0"
    },
    {
      "axis_h" : 1,
      "axis_w" : 2,
      "bottom" : "residual4_concat0",
      "axis_k" : 0,
      "axis_n" : 3,
      "axis_seq" : 4,
      "weights" : {

      },
      "debug_info" : "residual4_transpose0",
      "top" : "residual4_transpose0",
      "type" : "transpose",
      "name" : "residual4_transpose0"
    },
    {
      "pad_r" : 0,
      "fused_relu" : 0,
      "fused_tanh" : 0,
      "debug_info" : "stgcn_action_stgcn_4graph_conv_conv_2",
      "pad_fill_mode" : 0,
      "pad_b" : 0,
      "pad_l" : 0,
      "top" : "stgcn_action_stgcn_4graph_conv_conv_2",
      "blob_weights" : 67,
      "K" : 54,
      "name" : "stgcn_action_stgcn_4graph_conv_conv_2",
      "has_batch_norm" : 0,
      "type" : "convolution",
      "n_groups" : 1,
      "pad_t" : 0,
      "has_biases" : 0,
      "C" : 18,
      "bottom" : "residual4_transpose0",
      "weights" : {

      },
      "Nx" : 1,
      "pad_mode" : 0,
      "pad_value" : 0,
      "Ny" : 1,
      "n_parallel" : 1
    },
    {
      "axis_h" : 1,
      "axis_w" : 2,
      "bottom" : "stgcn_action_stgcn_4graph_conv_conv_2",
      "axis_k" : 0,
      "axis_n" : 3,
      "axis_seq" : 4,
      "weights" : {

      },
      "debug_info" : "residual4_transpose1",
      "top" : "residual4_transpose1",
      "type" : "transpose",
      "name" : "residual4_transpose1"
    },
    {
      "name" : "stgcn_action_stgcn_4graph_conv_tcn_batch_norm_0",
      "bottom" : "residual4_transpose1",
      "weights" : {

      },
      "debug_info" : "stgcn_action_stgcn_4graph_conv_tcn_batch_norm_0",
      "top" : "stgcn_action_stgcn_4graph_conv_tcn_batch_norm_0",
      "C" : 64,
      "blob_batchnorm_params" : 69,
      "type" : "batchnorm"
    },
    {
      "bottom" : "stgcn_action_stgcn_4graph_conv_tcn_batch_norm_0",
      "weights" : {

      },
      "mode" : 0,
      "debug_info" : "stgcn_action_stgcn_4graph_conv_tcn_relu_0",
      "top" : "stgcn_action_stgcn_4graph_conv_tcn_relu_0",
      "type" : "activation",
      "name" : "stgcn_action_stgcn_4graph_conv_tcn_relu_0"
    },
    {
      "pad_r" : 0,
      "fused_relu" : 0,
      "fused_tanh" : 0,
      "debug_info" : "stgcn_action_stgcn_4graph_conv_tcn_conv_1",
      "pad_fill_mode" : 0,
      "pad_b" : 4,
      "pad_l" : 0,
      "top" : "stgcn_action_stgcn_4graph_conv_tcn_batch_norm_1",
      "blob_weights" : 73,
      "K" : 64,
      "blob_biases" : 71,
      "name" : "stgcn_action_stgcn_4graph_conv_tcn_conv_1",
      "has_batch_norm" : 0,
      "type" : "convolution",
      "n_groups" : 1,
      "pad_t" : 4,
      "has_biases" : 1,
      "C" : 64,
      "bottom" : "stgcn_action_stgcn_4graph_conv_tcn_relu_0",
      "weights" : {

      },
      "Nx" : 1,
      "pad_mode" : 0,
      "pad_value" : 0,
      "Ny" : 9,
      "n_parallel" : 1
    },
    {
      "bottom" : "stgcn_action_stgcn_4graph_conv_tcn_batch_norm_1,stgcn_action_stgcn_3_relu_0",
      "alpha" : 1,
      "operation" : 0,
      "weights" : {

      },
      "fused_relu" : 0,
      "debug_info" : "residual4_add_broadcastable0",
      "nd_mode" : true,
      "top" : "residual4_add_broadcastable0",
      "type" : "elementwise",
      "name" : "residual4_add_broadcastable0",
      "beta" : 0
    },
    {
      "bottom" : "residual4_add_broadcastable0",
      "weights" : {

      },
      "mode" : 0,
      "debug_info" : "stgcn_action_stgcn_4_relu_0",
      "top" : "stgcn_action_stgcn_4_relu_0",
      "type" : "activation",
      "name" : "stgcn_action_stgcn_4_relu_0"
    },
    {
      "pad_r" : 0,
      "fused_relu" : 0,
      "fused_tanh" : 0,
      "debug_info" : "stgcn_action_stgcn_5graph_conv_conv_1",
      "pad_fill_mode" : 0,
      "pad_b" : 0,
      "pad_l" : 0,
      "top" : "stgcn_action_stgcn_5graph_conv_conv_1",
      "blob_weights" : 77,
      "K" : 64,
      "blob_biases" : 75,
      "name" : "stgcn_action_stgcn_5graph_conv_conv_1",
      "has_batch_norm" : 0,
      "type" : "convolution",
      "n_groups" : 1,
      "pad_t" : 0,
      "has_biases" : 1,
      "C" : 384,
      "bottom" : "stgcn_action_stgcn_4_relu_0",
      "weights" : {

      },
      "Nx" : 1,
      "pad_mode" : 0,
      "pad_value" : 0,
      "Ny" : 1,
      "n_parallel" : 1
    },
    {
      "begin_104" : 0,
      "begin_63" : 0,
      "begin_59" : 0,
      "begin_64" : 0,
      "begin_105" : 0,
      "begin_65" : 0,
      "begin_0" : 128,
      "begin_70" : 0,
      "begin_66" : 0,
      "begin_106" : 0,
      "begin_110" : 0,
      "begin_2" : 128,
      "begin_71" : 0,
      "begin_67" : 0,
      "begin_68" : 0,
      "begin_107" : 0,
      "begin_111" : 0,
      "begin_4" : 0,
      "begin_72" : 0,
      "begin_73" : 0,
      "begin_69" : 0,
      "begin_6" : 0,
      "begin_74" : 0,
      "begin_108" : 0,
      "type" : "split_nd",
      "begin_8" : 0,
      "begin_112" : 0,
      "begin_75" : 0,
      "begin_10" : 0,
      "begin_80" : 0,
      "begin_76" : 0,
      "begin_109" : 0,
      "begin_113" : 0,
      "begin_11" : 0,
      "nd_axis" : 1,
      "begin_81" : 0,
      "begin_77" : 0,
      "begin_114" : 0,
      "begin_12" : 0,
      "begin_78" : 0,
      "begin_82" : 0,
      "begin_13" : 0,
      "begin_83" : 0,
      "begin_79" : 0,
      "begin_115" : 0,
      "begin_14" : 0,
      "begin_84" : 0,
      "begin_15" : 0,
      "begin_85" : 0,
      "num_splits" : 3,
      "begin_116" : 0,
      "begin_120" : 0,
      "begin_20" : 0,
      "begin_86" : 0,
      "begin_16" : 0,
      "begin_90" : 0,
      "begin_21" : 0,
      "begin_91" : 0,
      "begin_87" : 0,
      "begin_17" : 0,
      "begin_117" : 0,
      "begin_121" : 0,
      "begin_18" : 0,
      "begin_92" : 0,
      "begin_88" : 0,
      "begin_22" : 0,
      "begin_23" : 0,
      "begin_89" : 0,
      "begin_19" : 0,
      "begin_93" : 0,
      "begin_118" : 0,
      "begin_122" : 0,
      "begin_24" : 0,
      "begin_94" : 0,
      "begin_25" : 0,
      "begin_95" : 0,
      "begin_119" : 0,
      "begin_123" : 0,
      "begin_30" : 0,
      "begin_26" : 0,
      "begin_96" : 0,
      "begin_124" : 0,
      "begin_31" : 0,
      "begin_97" : 0,
      "begin_27" : 0,
      "begin_28" : 0,
      "begin_98" : 0,
      "begin_32" : 0,
      "begin_125" : 0,
      "begin_33" : 0,
      "begin_29" : 0,
      "begin_99" : 0,
      "begin_1" : 128,
      "weights" : {

      },
      "begin_34" : 0,
      "bottom" : "stgcn_action_stgcn_5graph_conv_conv_1",
      "begin_3" : 0,
      "begin_126" : 0,
      "begin_35" : 0,
      "begin_5" : 0,
      "begin_36" : 0,
      "begin_40" : 0,
      "begin_127" : 0,
      "name" : "residual5_split0",
      "begin_41" : 0,
      "begin_37" : 0,
      "begin_7" : 0,
      "begin_42" : 0,
      "begin_38" : 0,
      "begin_9" : 0,
      "begin_39" : 0,
      "begin_43" : 0,
      "begin_44" : 0,
      "begin_45" : 0,
      "begin_50" : 0,
      "begin_46" : 0,
      "begin_51" : 0,
      "begin_47" : 0,
      "begin_100" : 0,
      "begin_52" : 0,
      "debug_info" : "residual5_split0",
      "begin_48" : 0,
      "top" : "residual5_split0_0,residual5_split0_1,residual5_split0_2",
      "begin_101" : 0,
      "begin_53" : 0,
      "begin_49" : 0,
      "begin_54" : 0,
      "begin_55" : 0,
      "begin_102" : 0,
      "begin_60" : 0,
      "begin_56" : 0,
      "begin_103" : 0,
      "begin_57" : 0,
      "begin_61" : 0,
      "begin_62" : 0,
      "begin_58" : 0
    },
    {
      "bottom" : "residual5_split0_0,residual5_split0_1,residual5_split0_2",
      "weights" : {

      },
      "nd_mode" : true,
      "axis" : 3,
      "debug_info" : "residual5_concat0",
      "top" : "residual5_concat0",
      "type" : "general_concat",
      "name" : "residual5_concat0"
    },
    {
      "axis_h" : 1,
      "axis_w" : 2,
      "bottom" : "residual5_concat0",
      "axis_k" : 0,
      "axis_n" : 3,
      "axis_seq" : 4,
      "weights" : {

      },
      "debug_info" : "residual5_transpose0",
      "top" : "residual5_transpose0",
      "type" : "transpose",
      "name" : "residual5_transpose0"
    },
    {
      "pad_r" : 0,
      "fused_relu" : 0,
      "fused_tanh" : 0,
      "debug_info" : "stgcn_action_stgcn_5graph_conv_conv_2",
      "pad_fill_mode" : 0,
      "pad_b" : 0,
      "pad_l" : 0,
      "top" : "stgcn_action_stgcn_5graph_conv_conv_2",
      "blob_weights" : 79,
      "K" : 54,
      "name" : "stgcn_action_stgcn_5graph_conv_conv_2",
      "has_batch_norm" : 0,
      "type" : "convolution",
      "n_groups" : 1,
      "pad_t" : 0,
      "has_biases" : 0,
      "C" : 18,
      "bottom" : "residual5_transpose0",
      "weights" : {

      },
      "Nx" : 1,
      "pad_mode" : 0,
      "pad_value" : 0,
      "Ny" : 1,
      "n_parallel" : 1
    },
    {
      "axis_h" : 1,
      "axis_w" : 2,
      "bottom" : "stgcn_action_stgcn_5graph_conv_conv_2",
      "axis_k" : 0,
      "axis_n" : 3,
      "axis_seq" : 4,
      "weights" : {

      },
      "debug_info" : "residual5_transpose1",
      "top" : "residual5_transpose1",
      "type" : "transpose",
      "name" : "residual5_transpose1"
    },
    {
      "name" : "stgcn_action_stgcn_5graph_conv_tcn_batch_norm_0",
      "bottom" : "residual5_transpose1",
      "weights" : {

      },
      "debug_info" : "stgcn_action_stgcn_5graph_conv_tcn_batch_norm_0",
      "top" : "stgcn_action_stgcn_5graph_conv_tcn_batch_norm_0",
      "C" : 128,
      "blob_batchnorm_params" : 81,
      "type" : "batchnorm"
    },
    {
      "bottom" : "stgcn_action_stgcn_5graph_conv_tcn_batch_norm_0",
      "weights" : {

      },
      "mode" : 0,
      "debug_info" : "stgcn_action_stgcn_5graph_conv_tcn_relu_0",
      "top" : "stgcn_action_stgcn_5graph_conv_tcn_relu_0",
      "type" : "activation",
      "name" : "stgcn_action_stgcn_5graph_conv_tcn_relu_0"
    },
    {
      "pad_r" : 0,
      "fused_relu" : 0,
      "fused_tanh" : 0,
      "debug_info" : "stgcn_action_stgcn_5graph_conv_tcn_conv_1",
      "pad_fill_mode" : 0,
      "pad_b" : 4,
      "pad_l" : 0,
      "top" : "stgcn_action_stgcn_5graph_conv_tcn_batch_norm_1",
      "blob_weights" : 85,
      "K" : 128,
      "blob_biases" : 83,
      "name" : "stgcn_action_stgcn_5graph_conv_tcn_conv_1",
      "has_batch_norm" : 0,
      "type" : "convolution",
      "n_groups" : 1,
      "pad_t" : 4,
      "stride_y" : 2,
      "has_biases" : 1,
      "C" : 128,
      "bottom" : "stgcn_action_stgcn_5graph_conv_tcn_relu_0",
      "weights" : {

      },
      "Nx" : 1,
      "pad_mode" : 0,
      "pad_value" : 0,
      "Ny" : 9,
      "n_parallel" : 1
    },
    {
      "pad_r" : 0,
      "fused_relu" : 0,
      "fused_tanh" : 0,
      "debug_info" : "stgcn_action_stgcn_5residual_conv_1",
      "pad_fill_mode" : 0,
      "pad_b" : 0,
      "pad_l" : 0,
      "top" : "stgcn_action_stgcn_5residual_batch_norm_1",
      "blob_weights" : 89,
      "K" : 64,
      "blob_biases" : 87,
      "name" : "stgcn_action_stgcn_5residual_conv_1",
      "has_batch_norm" : 0,
      "type" : "convolution",
      "n_groups" : 1,
      "pad_t" : 0,
      "stride_y" : 2,
      "has_biases" : 1,
      "C" : 128,
      "bottom" : "stgcn_action_stgcn_4_relu_0",
      "weights" : {

      },
      "Nx" : 1,
      "pad_mode" : 0,
      "pad_value" : 0,
      "Ny" : 1,
      "n_parallel" : 1
    },
    {
      "bottom" : "stgcn_action_stgcn_5graph_conv_tcn_batch_norm_1,stgcn_action_stgcn_5residual_batch_norm_1",
      "alpha" : 1,
      "operation" : 0,
      "weights" : {

      },
      "fused_relu" : 0,
      "debug_info" : "residual5_add_broadcastable0",
      "nd_mode" : true,
      "top" : "residual5_add_broadcastable0",
      "type" : "elementwise",
      "name" : "residual5_add_broadcastable0",
      "beta" : 0
    },
    {
      "bottom" : "residual5_add_broadcastable0",
      "weights" : {

      },
      "mode" : 0,
      "debug_info" : "stgcn_action_stgcn_5_relu_0",
      "top" : "stgcn_action_stgcn_5_relu_0",
      "type" : "activation",
      "name" : "stgcn_action_stgcn_5_relu_0"
    },
    {
      "pad_r" : 0,
      "fused_relu" : 0,
      "fused_tanh" : 0,
      "debug_info" : "stgcn_action_stgcn_6graph_conv_conv_1",
      "pad_fill_mode" : 0,
      "pad_b" : 0,
      "pad_l" : 0,
      "top" : "stgcn_action_stgcn_6graph_conv_conv_1",
      "blob_weights" : 93,
      "K" : 128,
      "blob_biases" : 91,
      "name" : "stgcn_action_stgcn_6graph_conv_conv_1",
      "has_batch_norm" : 0,
      "type" : "convolution",
      "n_groups" : 1,
      "pad_t" : 0,
      "has_biases" : 1,
      "C" : 768,
      "bottom" : "stgcn_action_stgcn_5_relu_0",
      "weights" : {

      },
      "Nx" : 1,
      "pad_mode" : 0,
      "pad_value" : 0,
      "Ny" : 1,
      "n_parallel" : 1
    },
    {
      "begin_104" : 0,
      "begin_63" : 0,
      "begin_59" : 0,
      "begin_64" : 0,
      "begin_105" : 0,
      "begin_65" : 0,
      "begin_0" : 256,
      "begin_70" : 0,
      "begin_66" : 0,
      "begin_106" : 0,
      "begin_110" : 0,
      "begin_2" : 256,
      "begin_71" : 0,
      "begin_67" : 0,
      "begin_68" : 0,
      "begin_107" : 0,
      "begin_111" : 0,
      "begin_4" : 0,
      "begin_72" : 0,
      "begin_73" : 0,
      "begin_69" : 0,
      "begin_6" : 0,
      "begin_74" : 0,
      "begin_108" : 0,
      "type" : "split_nd",
      "begin_8" : 0,
      "begin_112" : 0,
      "begin_75" : 0,
      "begin_10" : 0,
      "begin_80" : 0,
      "begin_76" : 0,
      "begin_109" : 0,
      "begin_113" : 0,
      "begin_11" : 0,
      "nd_axis" : 1,
      "begin_81" : 0,
      "begin_77" : 0,
      "begin_114" : 0,
      "begin_12" : 0,
      "begin_78" : 0,
      "begin_82" : 0,
      "begin_13" : 0,
      "begin_83" : 0,
      "begin_79" : 0,
      "begin_115" : 0,
      "begin_14" : 0,
      "begin_84" : 0,
      "begin_15" : 0,
      "begin_85" : 0,
      "num_splits" : 3,
      "begin_116" : 0,
      "begin_120" : 0,
      "begin_20" : 0,
      "begin_86" : 0,
      "begin_16" : 0,
      "begin_90" : 0,
      "begin_21" : 0,
      "begin_91" : 0,
      "begin_87" : 0,
      "begin_17" : 0,
      "begin_117" : 0,
      "begin_121" : 0,
      "begin_18" : 0,
      "begin_92" : 0,
      "begin_88" : 0,
      "begin_22" : 0,
      "begin_23" : 0,
      "begin_89" : 0,
      "begin_19" : 0,
      "begin_93" : 0,
      "begin_118" : 0,
      "begin_122" : 0,
      "begin_24" : 0,
      "begin_94" : 0,
      "begin_25" : 0,
      "begin_95" : 0,
      "begin_119" : 0,
      "begin_123" : 0,
      "begin_30" : 0,
      "begin_26" : 0,
      "begin_96" : 0,
      "begin_124" : 0,
      "begin_31" : 0,
      "begin_97" : 0,
      "begin_27" : 0,
      "begin_28" : 0,
      "begin_98" : 0,
      "begin_32" : 0,
      "begin_125" : 0,
      "begin_33" : 0,
      "begin_29" : 0,
      "begin_99" : 0,
      "begin_1" : 256,
      "weights" : {

      },
      "begin_34" : 0,
      "bottom" : "stgcn_action_stgcn_6graph_conv_conv_1",
      "begin_3" : 0,
      "begin_126" : 0,
      "begin_35" : 0,
      "begin_5" : 0,
      "begin_36" : 0,
      "begin_40" : 0,
      "begin_127" : 0,
      "name" : "residual6_split0",
      "begin_41" : 0,
      "begin_37" : 0,
      "begin_7" : 0,
      "begin_42" : 0,
      "begin_38" : 0,
      "begin_9" : 0,
      "begin_39" : 0,
      "begin_43" : 0,
      "begin_44" : 0,
      "begin_45" : 0,
      "begin_50" : 0,
      "begin_46" : 0,
      "begin_51" : 0,
      "begin_47" : 0,
      "begin_100" : 0,
      "begin_52" : 0,
      "debug_info" : "residual6_split0",
      "begin_48" : 0,
      "top" : "residual6_split0_0,residual6_split0_1,residual6_split0_2",
      "begin_101" : 0,
      "begin_53" : 0,
      "begin_49" : 0,
      "begin_54" : 0,
      "begin_55" : 0,
      "begin_102" : 0,
      "begin_60" : 0,
      "begin_56" : 0,
      "begin_103" : 0,
      "begin_57" : 0,
      "begin_61" : 0,
      "begin_62" : 0,
      "begin_58" : 0
    },
    {
      "bottom" : "residual6_split0_0,residual6_split0_1,residual6_split0_2",
      "weights" : {

      },
      "nd_mode" : true,
      "axis" : 3,
      "debug_info" : "residual6_concat0",
      "top" : "residual6_concat0",
      "type" : "general_concat",
      "name" : "residual6_concat0"
    },
    {
      "axis_h" : 1,
      "axis_w" : 2,
      "bottom" : "residual6_concat0",
      "axis_k" : 0,
      "axis_n" : 3,
      "axis_seq" : 4,
      "weights" : {

      },
      "debug_info" : "residual6_transpose0",
      "top" : "residual6_transpose0",
      "type" : "transpose",
      "name" : "residual6_transpose0"
    },
    {
      "pad_r" : 0,
      "fused_relu" : 0,
      "fused_tanh" : 0,
      "debug_info" : "stgcn_action_stgcn_6graph_conv_conv_2",
      "pad_fill_mode" : 0,
      "pad_b" : 0,
      "pad_l" : 0,
      "top" : "stgcn_action_stgcn_6graph_conv_conv_2",
      "blob_weights" : 95,
      "K" : 54,
      "name" : "stgcn_action_stgcn_6graph_conv_conv_2",
      "has_batch_norm" : 0,
      "type" : "convolution",
      "n_groups" : 1,
      "pad_t" : 0,
      "has_biases" : 0,
      "C" : 18,
      "bottom" : "residual6_transpose0",
      "weights" : {

      },
      "Nx" : 1,
      "pad_mode" : 0,
      "pad_value" : 0,
      "Ny" : 1,
      "n_parallel" : 1
    },
    {
      "axis_h" : 1,
      "axis_w" : 2,
      "bottom" : "stgcn_action_stgcn_6graph_conv_conv_2",
      "axis_k" : 0,
      "axis_n" : 3,
      "axis_seq" : 4,
      "weights" : {

      },
      "debug_info" : "residual6_transpose1",
      "top" : "residual6_transpose1",
      "type" : "transpose",
      "name" : "residual6_transpose1"
    },
    {
      "name" : "stgcn_action_stgcn_6graph_conv_tcn_batch_norm_0",
      "bottom" : "residual6_transpose1",
      "weights" : {

      },
      "debug_info" : "stgcn_action_stgcn_6graph_conv_tcn_batch_norm_0",
      "top" : "stgcn_action_stgcn_6graph_conv_tcn_batch_norm_0",
      "C" : 256,
      "blob_batchnorm_params" : 97,
      "type" : "batchnorm"
    },
    {
      "bottom" : "stgcn_action_stgcn_6graph_conv_tcn_batch_norm_0",
      "weights" : {

      },
      "mode" : 0,
      "debug_info" : "stgcn_action_stgcn_6graph_conv_tcn_relu_0",
      "top" : "stgcn_action_stgcn_6graph_conv_tcn_relu_0",
      "type" : "activation",
      "name" : "stgcn_action_stgcn_6graph_conv_tcn_relu_0"
    },
    {
      "pad_r" : 0,
      "fused_relu" : 0,
      "fused_tanh" : 0,
      "debug_info" : "stgcn_action_stgcn_6graph_conv_tcn_conv_1",
      "pad_fill_mode" : 0,
      "pad_b" : 4,
      "pad_l" : 0,
      "top" : "stgcn_action_stgcn_6graph_conv_tcn_batch_norm_1",
      "blob_weights" : 101,
      "K" : 256,
      "blob_biases" : 99,
      "name" : "stgcn_action_stgcn_6graph_conv_tcn_conv_1",
      "has_batch_norm" : 0,
      "type" : "convolution",
      "n_groups" : 1,
      "pad_t" : 4,
      "has_biases" : 1,
      "C" : 256,
      "bottom" : "stgcn_action_stgcn_6graph_conv_tcn_relu_0",
      "weights" : {

      },
      "Nx" : 1,
      "pad_mode" : 0,
      "pad_value" : 0,
      "Ny" : 9,
      "n_parallel" : 1
    },
    {
      "pad_r" : 0,
      "fused_relu" : 0,
      "fused_tanh" : 0,
      "debug_info" : "stgcn_action_stgcn_6residual_conv_1",
      "pad_fill_mode" : 0,
      "pad_b" : 0,
      "pad_l" : 0,
      "top" : "stgcn_action_stgcn_6residual_batch_norm_1",
      "blob_weights" : 105,
      "K" : 128,
      "blob_biases" : 103,
      "name" : "stgcn_action_stgcn_6residual_conv_1",
      "has_batch_norm" : 0,
      "type" : "convolution",
      "n_groups" : 1,
      "pad_t" : 0,
      "has_biases" : 1,
      "C" : 256,
      "bottom" : "stgcn_action_stgcn_5_relu_0",
      "weights" : {

      },
      "Nx" : 1,
      "pad_mode" : 0,
      "pad_value" : 0,
      "Ny" : 1,
      "n_parallel" : 1
    },
    {
      "bottom" : "stgcn_action_stgcn_6graph_conv_tcn_batch_norm_1,stgcn_action_stgcn_6residual_batch_norm_1",
      "alpha" : 1,
      "operation" : 0,
      "weights" : {

      },
      "fused_relu" : 0,
      "debug_info" : "residual6_add_broadcastable0",
      "nd_mode" : true,
      "top" : "residual6_add_broadcastable0",
      "type" : "elementwise",
      "name" : "residual6_add_broadcastable0",
      "beta" : 0
    },
    {
      "bottom" : "residual6_add_broadcastable0",
      "weights" : {

      },
      "mode" : 0,
      "debug_info" : "decode_activation0",
      "top" : "decode_activation0",
      "type" : "activation",
      "name" : "decode_activation0"
    },
    {
      "pad_r" : 0,
      "debug_info" : "decode_pooling0",
      "pad_fill_mode" : 0,
      "pad_b" : 0,
      "pad_l" : 0,
      "size_x" : 18,
      "top" : "decode_pooling0",
      "top_shape_style" : 0,
      "stride_x" : 18,
      "avg_or_max" : 0,
      "average_count_exclude_padding" : 1,
      "type" : "pool",
      "name" : "decode_pooling0",
      "pad_t" : 0,
      "stride_y" : 15,
      "bottom" : "decode_activation0",
      "weights" : {

      },
      "pad_mode" : 2,
      "size_y" : 15,
      "pad_value" : 0
    },
    {
      "pad_r" : 0,
      "fused_relu" : 0,
      "fused_tanh" : 0,
      "debug_info" : "stgcn_action_conv_1",
      "pad_fill_mode" : 0,
      "pad_b" : 0,
      "pad_l" : 0,
      "top" : "stgcn_action_conv_1",
      "blob_weights" : 109,
      "K" : 256,
      "blob_biases" : 107,
      "name" : "stgcn_action_conv_1",
      "has_batch_norm" : 0,
      "type" : "convolution",
      "n_groups" : 1,
      "pad_t" : 0,
      "has_biases" : 1,
      "C" : 3,
      "bottom" : "decode_pooling0",
      "weights" : {

      },
      "Nx" : 1,
      "pad_mode" : 0,
      "pad_value" : 0,
      "Ny" : 1,
      "n_parallel" : 1
    },
    {
      "top" : "decode_constant0",
      "w" : 1,
      "h" : 1,
      "name" : "decode_constant0",
      "nd_rank" : 1,
      "type" : "load_constant",
      "k" : 1,
      "bottom" : "",
      "debug_info" : "decode_constant0",
      "n" : 1,
      "weights" : {

      },
      "constant_blob" : 111
    },
    {
      "bottom" : "stgcn_action_conv_1",
      "weights" : {

      },
      "nd_mode" : 1,
      "axis" : -1,
      "debug_info" : "decode_getshape0",
      "top" : "decode_getshape0",
      "type" : "get_shape",
      "name" : "decode_getshape0"
    },
    {
      "bottom" : "decode_getshape0,decode_constant0",
      "weights" : {

      },
      "mode" : 0,
      "debug_info" : "decode_gather0",
      "axis" : 0,
      "top" : "decode_gather0",
      "type" : "gather_nd",
      "name" : "decode_gather0",
      "batch_dims" : 0
    },
    {
      "size_of_axes" : 1,
      "bottom" : "decode_gather0",
      "axes_0" : 0,
      "weights" : {

      },
      "nd_axis" : 0,
      "debug_info" : "decode_expand_dims0",
      "top" : "decode_expand_dims0",
      "type" : "expand_dims",
      "name" : "decode_expand_dims0"
    },
    {
      "top" : "decode_constant1",
      "w" : 1,
      "h" : 1,
      "name" : "decode_constant1",
      "nd_rank" : 1,
      "type" : "load_constant",
      "k" : 1,
      "bottom" : "",
      "debug_info" : "decode_constant1",
      "n" : 1,
      "weights" : {

      },
      "constant_blob" : 113
    },
    {
      "bottom" : "decode_expand_dims0,decode_constant1",
      "weights" : {

      },
      "nd_mode" : true,
      "axis" : 0,
      "debug_info" : "decode_concat0",
      "top" : "decode_concat0",
      "type" : "general_concat",
      "name" : "decode_concat0"
    },
    {
      "name" : "decode_reshape0",
      "weights" : {

      },
      "dst_w" : 0,
      "version" : 1,
      "dst_n" : 0,
      "type" : "reshape",
      "dst_h" : 0,
      "mode" : 0,
      "bottom" : "stgcn_action_conv_1,decode_concat0",
      "debug_info" : "decode_reshape0",
      "nd_mode" : 1,
      "dst_seq" : 1,
      "dst_k" : 0,
      "top" : "decode_reshape0"
    },
    {
      "bottom" : "decode_reshape0",
      "attributes" : {
        "basic_block_head" : 1,
        "is_output" : 1
      },
      "weights" : {

      },
      "debug_info" : "labelProbabilities",
      "top" : "labelProbabilities",
      "C" : 2,
      "type" : "softmax",
      "name" : "labelProbabilities"
    }
  ],
  "storage" : "model.espresso.weights",
  "metadata_in_weights" : [

  ],
  "analyses" : {

  },
  "properties" : {

  },
  "format_version" : 300,
  "shape" : {
    "layer_shapes" : {
      "stgcn_action_stgcn_5graph_conv_conv_1" : {
        "k" : 384,
        "w" : 18,
        "n" : 1,
        "_rank" : 4,
        "h" : 30
      },
      "residual3_split0_1" : {
        "k" : 64,
        "w" : 18,
        "n" : 1,
        "_rank" : 4,
        "h" : 60
      },
      "residual2_transpose0" : {
        "k" : 54,
        "w" : 32,
        "n" : 1,
        "_rank" : 4,
        "h" : 60
      },
      "decode_pooling0" : {
        "k" : 256,
        "w" : 1,
        "n" : 1,
        "_rank" : 4,
        "h" : 1
      },
      "decode_constant0" : {
        "k" : 1,
        "w" : 1,
        "n" : 1,
        "_rank" : 1,
        "h" : 1
      },
      "residual4_add_broadcastable0" : {
        "k" : 64,
        "w" : 18,
        "n" : 1,
        "_rank" : 4,
        "h" : 30
      },
      "stgcn_action_stgcn_1graph_conv_tcn_batch_norm_0" : {
        "k" : 16,
        "w" : 18,
        "n" : 1,
        "_rank" : 4,
        "h" : 60
      },
      "residual4_concat0" : {
        "k" : 64,
        "w" : 54,
        "n" : 1,
        "_rank" : 4,
        "h" : 30
      },
      "encode_split0_1" : {
        "k" : 8,
        "w" : 18,
        "n" : 1,
        "_rank" : 4,
        "h" : 60
      },
      "residual1_transpose1" : {
        "k" : 16,
        "w" : 18,
        "n" : 1,
        "_rank" : 4,
        "h" : 60
      },
      "stgcn_action_stgcn_5graph_conv_tcn_batch_norm_0" : {
        "k" : 128,
        "w" : 18,
        "n" : 1,
        "_rank" : 4,
        "h" : 30
      },
      "encode_transpose1" : {
        "k" : 54,
        "w" : 8,
        "n" : 1,
        "_rank" : 4,
        "h" : 60
      },
      "input_transpose0" : {
        "k" : 3,
        "w" : 60,
        "n" : 1,
        "_rank" : 3,
        "h" : 18
      },
      "residual2_add_broadcastable0" : {
        "k" : 32,
        "w" : 18,
        "n" : 1,
        "_rank" : 4,
        "h" : 60
      },
      "stgcn_action_stgcn_1graph_conv_conv_2" : {
        "k" : 18,
        "w" : 16,
        "n" : 1,
        "_rank" : 4,
        "h" : 60
      },
      "stgcn_action_stgcn_1graph_conv_tcn_relu_0" : {
        "k" : 16,
        "w" : 18,
        "n" : 1,
        "_rank" : 4,
        "h" : 60
      },
      "residual4_split0_2" : {
        "k" : 64,
        "w" : 18,
        "n" : 1,
        "_rank" : 4,
        "h" : 30
      },
      "stgcn_action_stgcn_3graph_conv_conv_2" : {
        "k" : 18,
        "w" : 64,
        "n" : 1,
        "_rank" : 4,
        "h" : 60
      },
      "stgcn_action_stgcn_3residual_batch_norm_1" : {
        "k" : 64,
        "w" : 18,
        "n" : 1,
        "_rank" : 4,
        "h" : 30
      },
      "stgcn_action_stgcn_4graph_conv_tcn_relu_0" : {
        "k" : 64,
        "w" : 18,
        "n" : 1,
        "_rank" : 4,
        "h" : 30
      },
      "stgcn_action_stgcn_5graph_conv_conv_2" : {
        "k" : 18,
        "w" : 128,
        "n" : 1,
        "_rank" : 4,
        "h" : 30
      },
      "encode_expand_dims0" : {
        "k" : 54,
        "w" : 60,
        "n" : 1,
        "_rank" : 5,
        "h" : 1
      },
      "stgcn_action_stgcn_3graph_conv_tcn_batch_norm_1" : {
        "k" : 64,
        "w" : 18,
        "n" : 1,
        "_rank" : 4,
        "h" : 30
      },
      "residual1_transpose0" : {
        "k" : 54,
        "w" : 16,
        "n" : 1,
        "_rank" : 4,
        "h" : 60
      },
      "residual4_split0_0" : {
        "k" : 64,
        "w" : 18,
        "n" : 1,
        "_rank" : 4,
        "h" : 30
      },
      "poses" : {
        "k" : 60,
        "w" : 18,
        "n" : 1,
        "_rank" : 3,
        "h" : 3
      },
      "stgcn_action_stgcn_6residual_batch_norm_1" : {
        "k" : 256,
        "w" : 18,
        "n" : 1,
        "_rank" : 4,
        "h" : 15
      },
      "stgcn_action_conv_1" : {
        "k" : 3,
        "w" : 1,
        "n" : 1,
        "_rank" : 4,
        "h" : 1
      },
      "decode_getshape0" : {
        "k" : 1,
        "w" : 4,
        "n" : 1,
        "_rank" : 1,
        "h" : 1
      },
      "residual1_split0_2" : {
        "k" : 16,
        "w" : 18,
        "n" : 1,
        "_rank" : 4,
        "h" : 60
      },
      "decode_expand_dims0" : {
        "k" : 1,
        "w" : 1,
        "n" : 1,
        "_rank" : 2,
        "h" : 1
      },
      "decode_constant1" : {
        "k" : 1,
        "w" : 1,
        "n" : 1,
        "_rank" : 1,
        "h" : 1
      },
      "stgcn_action_batch_norm_1" : {
        "k" : 54,
        "w" : 60,
        "n" : 1,
        "_rank" : 5,
        "h" : 1
      },
      "decode_concat0" : {
        "k" : 1,
        "w" : 1,
        "n" : 1,
        "_rank" : 2,
        "h" : 2
      },
      "residual1_split0_0" : {
        "k" : 16,
        "w" : 18,
        "n" : 1,
        "_rank" : 4,
        "h" : 60
      },
      "stgcn_action_stgcn_0graph_conv_tcn_batch_norm_0" : {
        "k" : 8,
        "w" : 18,
        "n" : 1,
        "_rank" : 4,
        "h" : 60
      },
      "residual5_split0_1" : {
        "k" : 128,
        "w" : 18,
        "n" : 1,
        "_rank" : 4,
        "h" : 30
      },
      "residual6_concat0" : {
        "k" : 256,
        "w" : 54,
        "n" : 1,
        "_rank" : 4,
        "h" : 15
      },
      "residual1_concat0" : {
        "k" : 16,
        "w" : 54,
        "n" : 1,
        "_rank" : 4,
        "h" : 60
      },
      "residual6_transpose1" : {
        "k" : 256,
        "w" : 18,
        "n" : 1,
        "_rank" : 4,
        "h" : 15
      },
      "encode_transpose2" : {
        "k" : 8,
        "w" : 18,
        "n" : 1,
        "_rank" : 4,
        "h" : 60
      },
      "residual2_split0_1" : {
        "k" : 32,
        "w" : 18,
        "n" : 1,
        "_rank" : 4,
        "h" : 60
      },
      "encode_reshape1" : {
        "k" : 3,
        "w" : 60,
        "n" : 1,
        "_rank" : 4,
        "h" : 18
      },
      "residual5_add_broadcastable0" : {
        "k" : 128,
        "w" : 18,
        "n" : 1,
        "_rank" : 4,
        "h" : 15
      },
      "residual6_transpose0" : {
        "k" : 54,
        "w" : 256,
        "n" : 1,
        "_rank" : 4,
        "h" : 15
      },
      "stgcn_action_stgcn_4graph_conv_tcn_batch_norm_0" : {
        "k" : 64,
        "w" : 18,
        "n" : 1,
        "_rank" : 4,
        "h" : 30
      },
      "stgcn_action_stgcn_6graph_conv_conv_1" : {
        "k" : 768,
        "w" : 18,
        "n" : 1,
        "_rank" : 4,
        "h" : 15
      },
      "residual6_split0_2" : {
        "k" : 256,
        "w" : 18,
        "n" : 1,
        "_rank" : 4,
        "h" : 15
      },
      "stgcn_action_stgcn_1_relu_0" : {
        "k" : 16,
        "w" : 18,
        "n" : 1,
        "_rank" : 4,
        "h" : 60
      },
      "stgcn_action_stgcn_3_relu_0" : {
        "k" : 64,
        "w" : 18,
        "n" : 1,
        "_rank" : 4,
        "h" : 30
      },
      "encode_activation0" : {
        "k" : 8,
        "w" : 18,
        "n" : 1,
        "_rank" : 4,
        "h" : 60
      },
      "stgcn_action_stgcn_5_relu_0" : {
        "k" : 128,
        "w" : 18,
        "n" : 1,
        "_rank" : 4,
        "h" : 15
      },
      "stgcn_action_stgcn_2graph_conv_tcn_batch_norm_1" : {
        "k" : 32,
        "w" : 18,
        "n" : 1,
        "_rank" : 4,
        "h" : 60
      },
      "stgcn_action_stgcn_3graph_conv_tcn_relu_0" : {
        "k" : 64,
        "w" : 18,
        "n" : 1,
        "_rank" : 4,
        "h" : 60
      },
      "encode_concat0" : {
        "k" : 8,
        "w" : 54,
        "n" : 1,
        "_rank" : 4,
        "h" : 60
      },
      "stgcn_action_stgcn_5residual_batch_norm_1" : {
        "k" : 128,
        "w" : 18,
        "n" : 1,
        "_rank" : 4,
        "h" : 15
      },
      "stgcn_action_stgcn_2residual_batch_norm_1" : {
        "k" : 32,
        "w" : 18,
        "n" : 1,
        "_rank" : 4,
        "h" : 60
      },
      "encode_squeeze0" : {
        "k" : 1,
        "w" : 60,
        "n" : 1,
        "_rank" : 3,
        "h" : 54
      },
      "residual5_transpose1" : {
        "k" : 128,
        "w" : 18,
        "n" : 1,
        "_rank" : 4,
        "h" : 30
      },
      "residual3_split0_2" : {
        "k" : 64,
        "w" : 18,
        "n" : 1,
        "_rank" : 4,
        "h" : 60
      },
      "residual6_split0_0" : {
        "k" : 256,
        "w" : 18,
        "n" : 1,
        "_rank" : 4,
        "h" : 15
      },
      "stgcn_action_stgcn_6graph_conv_tcn_relu_0" : {
        "k" : 256,
        "w" : 18,
        "n" : 1,
        "_rank" : 4,
        "h" : 15
      },
      "stgcn_action_stgcn_6graph_conv_tcn_batch_norm_1" : {
        "k" : 256,
        "w" : 18,
        "n" : 1,
        "_rank" : 4,
        "h" : 15
      },
      "stgcn_action_stgcn_0graph_conv_conv_1" : {
        "k" : 24,
        "w" : 18,
        "n" : 1,
        "_rank" : 4,
        "h" : 60
      },
      "residual3_split0_0" : {
        "k" : 64,
        "w" : 18,
        "n" : 1,
        "_rank" : 4,
        "h" : 60
      },
      "encode_split0_0" : {
        "k" : 8,
        "w" : 18,
        "n" : 1,
        "_rank" : 4,
        "h" : 60
      },
      "stgcn_action_stgcn_2graph_conv_conv_1" : {
        "k" : 96,
        "w" : 18,
        "n" : 1,
        "_rank" : 4,
        "h" : 60
      },
      "decode_reshape0" : {
        "k" : 3,
        "w" : 1,
        "n" : 1,
        "h" : 1
      },
      "residual3_concat0" : {
        "k" : 64,
        "w" : 54,
        "n" : 1,
        "_rank" : 4,
        "h" : 60
      },
      "stgcn_action_stgcn_4graph_conv_conv_1" : {
        "k" : 192,
        "w" : 18,
        "n" : 1,
        "_rank" : 4,
        "h" : 30
      },
      "residual5_transpose0" : {
        "k" : 54,
        "w" : 128,
        "n" : 1,
        "_rank" : 4,
        "h" : 30
      },
      "residual3_add_broadcastable0" : {
        "k" : 64,
        "w" : 18,
        "n" : 1,
        "_rank" : 4,
        "h" : 30
      },
      "stgcn_action_stgcn_3graph_conv_tcn_batch_norm_0" : {
        "k" : 64,
        "w" : 18,
        "n" : 1,
        "_rank" : 4,
        "h" : 60
      },
      "stgcn_action_stgcn_6graph_conv_conv_2" : {
        "k" : 18,
        "w" : 256,
        "n" : 1,
        "_rank" : 4,
        "h" : 15
      },
      "decode_gather0" : {
        "k" : 1,
        "w" : 1,
        "n" : 1,
        "_rank" : 1,
        "h" : 1
      },
      "stgcn_action_stgcn_1graph_conv_tcn_batch_norm_1" : {
        "k" : 16,
        "w" : 18,
        "n" : 1,
        "_rank" : 4,
        "h" : 60
      },
      "residual4_transpose1" : {
        "k" : 64,
        "w" : 18,
        "n" : 1,
        "_rank" : 4,
        "h" : 30
      },
      "residual4_split0_1" : {
        "k" : 64,
        "w" : 18,
        "n" : 1,
        "_rank" : 4,
        "h" : 30
      },
      "encode_split0_2" : {
        "k" : 8,
        "w" : 18,
        "n" : 1,
        "_rank" : 4,
        "h" : 60
      },
      "stgcn_action_stgcn_5graph_conv_tcn_batch_norm_1" : {
        "k" : 128,
        "w" : 18,
        "n" : 1,
        "_rank" : 4,
        "h" : 15
      },
      "stgcn_action_stgcn_0graph_conv_conv_2" : {
        "k" : 18,
        "w" : 8,
        "n" : 1,
        "_rank" : 4,
        "h" : 60
      },
      "stgcn_action_stgcn_2graph_conv_conv_2" : {
        "k" : 18,
        "w" : 32,
        "n" : 1,
        "_rank" : 4,
        "h" : 60
      },
      "residual4_transpose0" : {
        "k" : 54,
        "w" : 64,
        "n" : 1,
        "_rank" : 4,
        "h" : 30
      },
      "stgcn_action_stgcn_4graph_conv_conv_2" : {
        "k" : 18,
        "w" : 64,
        "n" : 1,
        "_rank" : 4,
        "h" : 30
      },
      "residual1_split0_1" : {
        "k" : 16,
        "w" : 18,
        "n" : 1,
        "_rank" : 4,
        "h" : 60
      },
      "residual1_add_broadcastable0" : {
        "k" : 16,
        "w" : 18,
        "n" : 1,
        "_rank" : 4,
        "h" : 60
      },
      "residual5_concat0" : {
        "k" : 128,
        "w" : 54,
        "n" : 1,
        "_rank" : 4,
        "h" : 30
      },
      "residual5_split0_2" : {
        "k" : 128,
        "w" : 18,
        "n" : 1,
        "_rank" : 4,
        "h" : 30
      },
      "labelProbabilities" : {
        "k" : 3,
        "w" : 1,
        "n" : 1,
        "h" : 1
      },
      "residual3_transpose1" : {
        "k" : 64,
        "w" : 18,
        "n" : 1,
        "_rank" : 4,
        "h" : 60
      },
      "stgcn_action_stgcn_2graph_conv_tcn_relu_0" : {
        "k" : 32,
        "w" : 18,
        "n" : 1,
        "_rank" : 4,
        "h" : 60
      },
      "stgcn_action_stgcn_5graph_conv_tcn_relu_0" : {
        "k" : 128,
        "w" : 18,
        "n" : 1,
        "_rank" : 4,
        "h" : 30
      },
      "residual5_split0_0" : {
        "k" : 128,
        "w" : 18,
        "n" : 1,
        "_rank" : 4,
        "h" : 30
      },
      "stgcn_action_stgcn_1residual_batch_norm_1" : {
        "k" : 16,
        "w" : 18,
        "n" : 1,
        "_rank" : 4,
        "h" : 60
      },
      "encode_reshape0" : {
        "k" : 1,
        "w" : 60,
        "n" : 1,
        "_rank" : 3,
        "h" : 54
      },
      "decode_activation0" : {
        "k" : 256,
        "w" : 18,
        "n" : 1,
        "_rank" : 4,
        "h" : 15
      },
      "residual2_split0_2" : {
        "k" : 32,
        "w" : 18,
        "n" : 1,
        "_rank" : 4,
        "h" : 60
      },
      "encode_transpose0" : {
        "k" : 3,
        "w" : 18,
        "n" : 1,
        "_rank" : 4,
        "h" : 60
      },
      "residual3_transpose0" : {
        "k" : 54,
        "w" : 64,
        "n" : 1,
        "_rank" : 4,
        "h" : 60
      },
      "residual2_concat0" : {
        "k" : 32,
        "w" : 54,
        "n" : 1,
        "_rank" : 4,
        "h" : 60
      },
      "residual2_split0_0" : {
        "k" : 32,
        "w" : 18,
        "n" : 1,
        "_rank" : 4,
        "h" : 60
      },
      "residual6_add_broadcastable0" : {
        "k" : 256,
        "w" : 18,
        "n" : 1,
        "_rank" : 4,
        "h" : 15
      },
      "stgcn_action_stgcn_2graph_conv_tcn_batch_norm_0" : {
        "k" : 32,
        "w" : 18,
        "n" : 1,
        "_rank" : 4,
        "h" : 60
      },
      "stgcn_action_stgcn_6graph_conv_tcn_batch_norm_0" : {
        "k" : 256,
        "w" : 18,
        "n" : 1,
        "_rank" : 4,
        "h" : 15
      },
      "stgcn_action_stgcn_0_relu_0" : {
        "k" : 8,
        "w" : 18,
        "n" : 1,
        "_rank" : 4,
        "h" : 60
      },
      "stgcn_action_stgcn_2_relu_0" : {
        "k" : 32,
        "w" : 18,
        "n" : 1,
        "_rank" : 4,
        "h" : 60
      },
      "stgcn_action_stgcn_4_relu_0" : {
        "k" : 64,
        "w" : 18,
        "n" : 1,
        "_rank" : 4,
        "h" : 30
      },
      "residual2_transpose1" : {
        "k" : 32,
        "w" : 18,
        "n" : 1,
        "_rank" : 4,
        "h" : 60
      },
      "stgcn_action_stgcn_1graph_conv_conv_1" : {
        "k" : 48,
        "w" : 18,
        "n" : 1,
        "_rank" : 4,
        "h" : 60
      },
      "residual6_split0_1" : {
        "k" : 256,
        "w" : 18,
        "n" : 1,
        "_rank" : 4,
        "h" : 15
      },
      "stgcn_action_stgcn_3graph_conv_conv_1" : {
        "k" : 192,
        "w" : 18,
        "n" : 1,
        "_rank" : 4,
        "h" : 60
      },
      "stgcn_action_stgcn_4graph_conv_tcn_batch_norm_1" : {
        "k" : 64,
        "w" : 18,
        "n" : 1,
        "_rank" : 4,
        "h" : 30
      }
    },
    "global_shapes" : {

    }
  },
  "subnetworks" : {

  }
}